Ethical Path Planning For AVs/paramTest1/ddpg_anet_params.pkl (torch, 5599 bytes, 3 tensors)

fc.weight f4 [100, 8]
0	0x3eaffb89	0.34371594
1	0x3e90f8bf	0.28314778
2	0xbe49a447	-0.19691573
3	0x3ebc68dd	0.36798754
4	0xbc3c7d66	-0.011504507
5	0xbe27a442	-0.16371253
6	0xbe3645c2	-0.17800048
7	0xbecd602d	-0.4011244
8	0xbcf4a519	-0.029863881
9	0xbf223f20	-0.6337757
10	0x3d9cb8a9	0.07652409
11	0xbee9e8dd	-0.45685473
12	0x3d59b1d3	0.053148102
13	0x3f29a7d6	0.6627172
14	0x3d7781b3	0.060426425
15	0xbe867f54	-0.2626902
16	0xbe75597f	-0.23959921
17	0xbe2283f2	-0.15870646
18	0x3e865525	0.26236835
19	0xbe547797	-0.20748745
20	0xbda6273a	-0.081129506
21	0xbe0f3caf	-0.13987993
22	0xbbb694d7	-0.0055719423
23	0xbe92cfdb	-0.28674206
24	0x3e7beaff	0.24601363
25	0xbec53752	-0.3851877
26	0x3ea40ed6	0.3204257
27	0xbe299fc5	-0.16564853
28	0xbe251737	-0.16122137
29	0x3d868270	0.06567848
30	0x3e120475	0.14259513
31	0xbd364682	-0.044500835
32	0xbeb7eccc	-0.3592285
33	0x3e0f3e19	0.13988532
34	0x3eb02e85	0.34410492
35	0x3e306d3a	0.17229167
36	0x3eb341fe	0.35011286
37	0x3e50aa0e	0.2037737
38	0x3c14fc70	0.009093389
39	0xbe90df9b	-0.28295597
40	0xbe9e3638	-0.3090074
41	0xbe794334	-0.24342042
42	0xbdb7b710	-0.08970463
43	0x3e52d151	0.2058766
44	0xbe155f10	-0.14587045
45	0xbc60fb15	-0.013731738
46	0xbba380d5	-0.004989723
47	0xbe6ca833	-0.23111038
48	0xbe16761e	-0.14693496
49	0x3ebf714b	0.37391123
50	0x3df883ae	0.12134491
51	0x3ddd5c6b	0.10808643
52	0xbe2d43b0	-0.16920352
53	0xbde1d5d3	-0.11027112
54	0x3d80c4c6	0.062875316
55	0xbddedfc9	-0.108825274
56	0xbe49d41f	-0.19709824
57	0x3eb982aa	0.362325
58	0xbd064051	-0.03277618
59	0xbe9557d7	-0.2916858
60	0x3e77b511	0.24190165
61	0xbbb6aaad	-0.0055745454
62	0x3e224501	0.15846635
63	0xbec00aa9	-0.37508133
64	0x3decac59	0.1155631
65	0x3e0e4a47	0.13895522
66	0xbce40555	-0.027834574
67	0xbe360e6b	-0.17778938
68	0x3e8ec642	0.27885634
69	0x3e728fc0	0.23687649
70	0x3e092fef	0.13397191
71	0x3d47f419	0.048816774
72	0x3ca85f93	0.020553386
73	0x3e222893	0.1583579
74	0xbd337b6e	-0.043818884
75	0xbe32d656	-0.17464575
76	0x3e37cae5	0.17948492
77	0x3e068763	0.13137583
78	0x3e2a7518	0.1664623
79	0xbd9853da	-0.074378684
80	0xbdb474b3	-0.08811321
81	0xbd67debe	-0.056608908
82	0x3d506fe9	0.050887976
83	0xbea09528	-0.31363797
84	0xbed31b3a	-0.4123171
85	0x3e0a26d9	0.13491382
86	0xbe18014f	-0.14844249
87	0x3c69d1e6	0.014271235
88	0xbd9450a8	-0.072419465
89	0xbf143e62	-0.5790769
90	0x3db33b50	0.08751547
91	0xbdc04ddc	-0.093898505
92	0xbbd95f65	-0.0066336864
93	0x3f7536c7	0.9578671
94	0x3d5f6b55	0.05454572
95	0x3e97e2bf	0.2966518
96	0x3e6eebd2	0.23332146
97	0xbead74fe	-0.3387832
98	0xbe1584fb	-0.1460151
99	0xbea1d609	-0.31608608
100	0xbd147070	-0.03624004
101	0x3e4af51c	0.19820064
102	0xbf07f54c	-0.5310867
103	0xbe5a8e53	-0.21343355
104	0x3e2ca0c4	0.16858202
105	0xbeaff735	-0.34368291
106	0x3e6dca46	0.23221692
107	0x3dabff68	0.08398324
108	0x3dade3f3	0.084907435
109	0x3ed3170a	0.41228515
110	0xbe93747f	-0.28799817
111	0x3e8c9a80	0.27461624
112	0x3d374b0a	0.044749297
113	0xbf26d0e0	-0.6516247
114	0x3d59fef1	0.053221647
115	0xbe0635a8	-0.13106406
116	0xbbb363f5	-0.0054745623
117	0x3ea022e7	0.31276628
118	0xbe9d928c	-0.3077587
119	0x3ed818ae	0.4220633
120	0x3e9bcdc1	0.30430415
121	0xbd1a7c59	-0.037716243
122	0xbea08613	-0.3135229
123	0xbcb12ede	-0.021628793
124	0x3cbf5c45	0.023359427
125	0x3e71fe88	0.23632252
126	0x3c3a5f52	0.011375265
127	0x3dd2bd65	0.102900304
128	0x3dc01f8a	0.093810156
129	0xbe4d6bda	-0.20060673
130	0xbe609159	-0.21930446
131	0xbea1ca28	-0.31599545
132	0xbb35f3f4	-0.0027763816
133	0x3de044a1	0.1095059
134	0xbccdf0ff	-0.02513933
135	0x3eafb597	0.3431823
136	0xbdc8f2cb	-0.09811934
137	0xbe6a7d99	-0.22899474
138	0x3d8f01fa	0.06982799
139	0xbdb59462	-0.088661924
140	0xbc75f61c	-0.01501229
141	0x3e5418ed	0.20712633
142	0x3d102697	0.035193052
143	0x3eb6773f	0.35637853
144	0x3ce8ff6e	0.02844211
145	0xbd4ee59e	-0.05051195
146	0x3e6ed683	0.23324017
147	0xbe68d2a5	-0.22736605
148	0xbcac82f8	-0.021058545
149	0xbc1209fe	-0.008913515
150	0x3dc74d84	0.09731582
151	0xbea5c4d2	-0.32376724
152	0x3a86f439	0.0010296173
153	0xbe58b15c	-0.21161407
154	0x3e5c8ba4	0.21537644
155	0x3dd73d5c	0.1050975
156	0x3e10f47c	0.14155763
157	0x3ea93c38	0.33053756
158	0xbd322f85	-0.04350235
159	0xbca33903	-0.019924646
160	0x3e85aa3d	0.26106444
161	0xbe91e64d	-0.28496018
162	0xbe88a89b	-0.26691136
163	0x3b684a68	0.003544474
164	0xbe190359	-0.14942683
165	0xbb07bfe7	-0.0020713748
166	0x3eab347a	0.33438474
167	0xbc9a4d84	-0.01883579
168	0xbea2698e	-0.31721157
169	0xbe90103d	-0.2813739
170	0x3ea194dc	0.31558883
171	0xbdb1b508	-0.08677107
172	0xbe1813dc	-0.14851326
173	0x3e8ee973	0.27912483
174	0x3dabc838	0.08387798
175	0xbe9c7fdc	-0.305663
176	0x3e89ccb9	0.26914003
177	0x3e8ffc91	0.2812238
178	0x3e8d3dd9	0.2758625
179	0x3dfc76c4	0.1232734
180	0xbe1f06a7	-0.15529881
181	0xbe54ee61	-0.2079406
182	0x3dde713c	0.108614415
183	0xbd76a4dc	-0.060215816
184	0x3d8df539	0.06931538
185	0xbeaf67d5	-0.34258905
186	0xbe32f6bb	-0.17476933
187	0x3e067a77	0.13132654
188	0xbc8ec8ea	-0.017429788
189	0xbe2e0ce3	-0.16997103
190	0xbe9de5b4	-0.30839312
191	0x3e6618e6	0.22470436
192	0xbec9765c	-0.39348114
193	0xbec2dc7f	-0.3805885
194	0x3e4c9bc4	0.19981295
195	0x3cfc588a	0.030803937
196	0xbea671b0	-0.32508612
197	0xbe8e1b70	-0.27755308
198	0x3e53c8bb	0.20682041
199	0x3e20a6e5	0.15688665
200	0xbe59bcf9	-0.21263494
201	0x3e50557f	0.20345114
202	0xbd96d31a	-0.07364483
203	0x3cc667ec	0.024219476
204	0xbe3c991e	-0.18417785
205	0xbe99528b	-0.29945788
206	0xbe707027	-0.23480283
207	0xbd1f02fd	-0.03882121
208	0xbe86d42b	-0.26333746
209	0x3ecd024e	0.4004082
210	0xbd66de1b	-0.05636416
211	0xbe483f4e	-0.19555399
212	0x3dabc8af	0.08387887
213	0xbec34a14	-0.38142455
214	0xbe71757c	-0.23579973
215	0x3e06ce85	0.13164718
216	0xbe99ce2d	-0.30040112
217	0x3e3470ef	0.17621206
218	0x3cf37327	0.029717995
219	0xbe96ef6b	-0.29479536
220	0xbeb3a640	-0.35087776
221	0x3de4d859	0.111740775
222	0x3e2b1fcb	0.16711347
223	0xbd90bf66	-0.07067756
224	0xbe9380e4	-0.28809273
225	0xbe424b01	-0.18973924
226	0x3db0cee7	0.086332135
227	0x3d7c541a	0.061603643
228	0x3e03f9af	0.12888215
229	0x3d638f79	0.055556748
230	0xbc07797c	-0.00826871
231	0x3e635dfa	0.22203818
232	0x3d3be902	0.04587651
233	0x3e42f9d5	0.19040616
234	0x3d9193db	0.07108279
235	0xbebd23d2	-0.3694139
236	0xbe6b6ec5	-0.22991474
237	0xbd4875cd	-0.04894047
238	0xbe01d99d	-0.12680669
239	0x3e99e574	0.3005787
240	0xbd011538	-0.031514376
241	0xbe69d9ab	-0.2283694
242	0xbe88943f	-0.26675603
243	0x3eae454b	0.3403724
244	0xbdc2ac22	-0.09505488
245	0xbd43becd	-0.047789384
246	0xbe5de10c	-0.2166788
247	0xbe337bf7	-0.17527758
248	0x3d2e6455	0.042576153
249	0x3de92f03	0.1138592
250	0xbe33f5e0	-0.17574263
251	0xbe2a0eef	-0.16607259
252	0x3e83cb5e	0.25741094
253	0xbe17153a	-0.14754191
254	0xbe6db185	-0.2321225
255	0xbcac6542	-0.021044377

fc.bias f4 [100]
0	0xbd6ae876	-0.0573506
1	0x3d94fdfb	0.072750054
2	0x3e2f60a0	0.17126703
3	0xbeadbe53	-0.33934268
4	0xbd29c9ac	-0.041452095
5	0x3df371bd	0.11886928
6	0x3e383d85	0.17992218
7	0xbe0ccd35	-0.13750155
8	0x3e75fe93	0.24022894
9	0x3c5fe045	0.01366431
10	0xbe3634f0	-0.17793632
11	0x3d9be389	0.07611758
12	0xbea0b481	-0.31387714
13	0x3e8a4073	0.27002296
14	0x3ea426fe	0.32061
15	0xbdc5b0d3	-0.09652867
16	0x3e0f0362	0.13966134
17	0x3eba1883	0.36346826
18	0x3da51b76	0.080618784
19	0x3dfeca43	0.12440922
20	0x3ddc2a77	0.10750287
21	0xbe1d7062	-0.15374902
22	0x3d60b71f	0.054862138
23	0xbe40f502	-0.18843463
24	0x3e24832c	0.16065663
25	0xbe1b2383	-0.15150265
26	0x3ca8ee6b	0.020621499
27	0xbdd1bff1	-0.10241688
28	0x3e66f743	0.2255526
29	0xbe7a1f26	-0.24425945
30	0x3e471170	0.19440246
31	0xbe06d602	-0.13167575
32	0xbebdab4b	-0.3704475
33	0x3e718c7b	0.23588745
34	0xbe8d7d23	-0.27634534
35	0xbe949f57	-0.29027817
36	0x3d5944cc	0.053044125
37	0xbe3dc89f	-0.18533562
38	0xbe139089	-0.14410605
39	0xbdc5dd0e	-0.096613035
40	0x3d3e4c4b	0.046459477
41	0xbe282529	-0.16420425
42	0xbe02fa88	-0.12790883
43	0xbdb5fd0e	-0.08886157
44	0x3ea4ee64	0.32213128
45	0x3e25d5f5	0.161949
46	0xbe3a32c3	-0.18183427
47	0xbe7a4086	-0.24438676
48	0xbcf2be0c	-0.029631637
49	0x3b3d5c28	0.002889404
50	0xbd3a2e74	-0.045454457
51	0x3e53ef16	0.20696673
52	0x3e7d7c0a	0.24754348
53	0x3d259fb6	0.040435515
54	0x3deecca7	0.11660128
55	0x3e1cd2de	0.15314814
56	0xbe0203ac	-0.12696713
57	0x3c5e2878	0.013559453
58	0x3e805292	0.25062996
59	0xbe7caa72	-0.24674395
60	0x3ce16acf	0.02751675
61	0xbe454976	-0.19266304
62	0xbec522c1	-0.38503078
63	0x3e6110ba	0.21979037
64	0x3e90a4ef	0.28250834
65	0xbe43960b	-0.19100206
66	0x3dbcec7e	0.09224795
67	0x3d0fda60	0.035120368
68	0x3dfb2991	0.122637875
69	0x3e474a0d	0.19461842
70	0x3e3b2ab6	0.18278012
71	0x3e783e0a	0.24242416
72	0xbe9e64d0	-0.3093629
73	0xbe2a884e	-0.16653559
74	0x3e40479d	0.18777318
75	0xbe307bd6	-0.1723474
76	0xbc919dd3	-0.017775452
77	0xbe3e5a30	-0.18589091
78	0x3dcae7ae	0.09907471
79	0x3e12a6e5	0.14321478
80	0x3de3960a	0.11112602
81	0x3e837fb9	0.25683382
82	0xbd83d4a0	-0.064370394
83	0x3e16c2eb	0.14722793
84	0x3de76377	0.11298268
85	0xbe4edd8f	-0.20201705
86	0xbe81852d	-0.25296918
87	0x3e91fd76	0.28513688
88	0xbe07a5b0	-0.13246799
89	0x3e88592c	0.26630533
90	0x3e5f6732	0.2181671
91	0xbd63265d	-0.055456508
92	0xbe6707ba	-0.22561541
93	0xbcc993b5	-0.024606565
94	0xbe47c079	-0.19507016
95	0xbd50a6ee	-0.050940447
96	0xbe0fe7f7	-0.14053331
97	0x3e839d22	0.2570582
98	0xbeaf47ac	-0.3423437
99	0xbe30afb6	-0.17254528

mu_head.weight f4 [1, 100]
0	0xbd864b40	-0.065573215
1	0xbd5ee841	-0.054420713
2	0x3cfdb7f5	0.030971507
3	0xbce2cc27	-0.027685238
4	0xbdb59d44	-0.08867887
5	0x3d87983b	0.066208325
6	0x3d505393	0.050860953
7	0x3d751f9b	0.059844594
8	0xbd8b7ee4	-0.06811312
9	0xbd9b36c8	-0.07578808
10	0xbca42dae	-0.020041313
11	0xbe879898	-0.26483607
12	0xbd540a59	-0.05176768
13	0xbcbe289d	-0.023212725
14	0x3eef059e	0.46683973
15	0xbc8d95d3	-0.017283356
16	0x3dbaddf5	0.09124366
17	0x3db0750b	0.08616074
18	0x3d7dd8fc	0.06197451
19	0xbd58b052	-0.052902527
20	0xbcbae0ce	-0.022812273
21	0xbd61cd45	-0.0551274
22	0x3d4ded99	0.05027542
23	0xbd8cd62a	-0.06876786
24	0x3df39a77	0.11894696
25	0xbd168340	-0.036746264
26	0x3d855956	0.0651118
27	0x3c671b73	0.0141056655
28	0x3da97793	0.0827476
29	0x3d7cee3f	0.061750647
30	0x3c47320d	0.012157929
31	0xbd91e78d	-0.07124243
32	0xbcb3b6c2	-0.021937732
33	0x3e2b009f	0.16699456
34	0x3cbefcae	0.023313846
35	0xba0b68cd	-0.0005318046
36	0xbe0dd9e7	-0.13852654
37	0x3dbaf476	0.091286585
38	0xbe8f02a9	-0.27931717
39	0x3e1b31bf	0.15155695
40	0x3d965576	0.07340519
41	0x3cc187ca	0.02362432
42	0xbd12469f	-0.03571188
43	0xbdc04c47	-0.09389549
44	0xbe48f03d	-0.19622894
45	0x3da95c97	0.08269613
46	0xbd29426a	-0.041323103
47	0xbdc38bb0	-0.09548128
48	0x3d576105	0.05258276
49	0x3d5a3bac	0.053279564
50	0xbda5d734	-0.08097687
51	0xbdbe2408	-0.09284216
52	0x3dd5578f	0.10417091
53	0xbdd80a13	-0.105487965
54	0x3d8eae18	0.069667995
55	0x3e1dd4f4	0.15413266
56	0xbda69a18	-0.0813486
57	0xbdb61476	-0.08890621
58	0x3d8913dc	0.06693241
59	0xbe07a5ff	-0.13246916
60	0xbd332eb7	-0.043745723
61	0xbcd35c5a	-0.025800873
62	0xbdb114cc	-0.08646545
63	0x3d9f17f3	0.0776824
64	0x3ccfbdb3	0.02535901
65	0xbd315893	-0.04329736
66	0x3c7409c0	0.014894903
67	0x3dac0caf	0.08400857
68	0xbd3d9d36	-0.046292506
69	0xbc3536b3	-0.011060405
70	0x3eb0282c	0.3440565
71	0xbe499a43	-0.19687752
72	0x3d5f1e83	0.054472458
73	0xbd68806f	-0.05676311
74	0x3cc93367	0.024560643
75	0x3e17f6b9	0.14840211
76	0x3e92d790	0.28680086
77	0xbea4c625	-0.32182422
78	0xbd4e23ef	-0.050327238
79	0x3d4edc63	0.050503146
80	0xbd831dd0	-0.06402171
81	0x3ccab647	0.02474512
82	0xbe1f2a5c	-0.15543503
83	0x3eb4a0aa	0.35278827
84	0xbd6bf1bd	-0.057603586
85	0xbd997c88	-0.074944556
86	0xbdce514a	-0.100740984
87	0xbcda9d85	-0.02668644
88	0x3d101e00	0.03518486
89	0xbdc584b0	-0.09644449
90	0x3d5de41a	0.054172613
91	0x3cd60cc6	0.026129138
92	0x3e8314e7	0.25601885
93	0x3dde66b1	0.108594306
94	0xbd0678f2	-0.032830186
95	0xbe390b0b	-0.18070619
96	0x3ba6b4cd	0.005087471
97	0xbd7c45b4	-0.06158991
98	0xbd238f8f	-0.03993183
99	0xba4db82c	-0.0007847573
