Ethical Path Planning For AVs/param/ddpg_cnet_params.pkl (torch, 6488 bytes, 3 tensors)

fc.weight f4 [100, 9]
000000 56 8d 23 bb 28 1b 37 3e 64 77 8c be 56 33 7b be
       -0.002495607 0.17881453 -0.27434838 -0.24531302
000010 4e 77 03 be e6 0f b7 3d ab 69 d8 bb df 51 87 3e
       -0.1283848 0.08938579 -0.0066043935 0.2642965
000020 96 54 f2 bc 66 a4 b4 3d 90 4f ce bd 4b 30 86 bd
       -0.02958135 0.08820419 -0.10073769 -0.0655218
000030 d0 0b a3 be 18 0f 62 be 9b b4 0c be ab 4e 4a 3c
       -0.3184495 -0.2207607 -0.1374077 0.0123478575
000040 eb f0 06 3e cb ce 4c 3e 85 97 41 be e5 6a eb be
       0.1317784 0.2000076 -0.18905456 -0.45979992
000050 77 25 34 3e 22 cc a9 3e 7b 2f 8f bb ff bb 55 3f
       0.17592417 0.33163553 -0.004369674 0.83489984
000060 ee fb 32 3b b3 20 c1 3d 2b 66 d4 3e c7 54 da be
       0.0027310806 0.09430065 0.41484198 -0.42642805
000070 f9 d8 89 be a9 77 ac bd 55 df 04 be 9b 36 9f 3e
       -0.2692335 -0.08421261 -0.1297582 0.31096348
000080 e7 39 ca bd b5 be 83 bd 9a db 4d be 99 e9 62 be
       -0.09874325 -0.06432859 -0.20103303 -0.22159423
000090 a6 ed 76 be df 66 66 3e 35 8b 0d 3e 67 ab 1a 3e
       -0.24114093 0.2250018 0.13822635 0.15104447
0000a0 1c ad 26 3d 8d 88 c3 bd b3 dd a0 3d f4 b7 94 be
       0.040692434 -0.09547529 0.07854786 -0.29046595
0000b0 e0 32 7b be 62 f2 e3 bd 4c f4 83 3e 8c fe 44 3e
       -0.24531126 -0.11130215 0.2577232 0.19237727
0000c0 43 84 1a be ed e5 6f bd ca 86 fe 3d 83 6e 95 3e
       -0.15089516 -0.058568884 0.12428053 0.29185876
0000d0 33 26 17 3d f7 0c 6c bd 48 45 3f 3e 48 2b 8f be
       0.036901664 -0.05762955 0.18678772 -0.27962708
0000e0 5f 47 05 3d 06 76 93 be 56 6a 79 be 69 1a 98 bd
       0.032538768 -0.28800982 -0.2435697 -0.07426912
0000f0 1b ca 7f 3e 06 19 31 3e 00 01 b0 be 5f d0 80 3d
       0.24979441 0.17294702 -0.34375763 0.06289744
000100 09 e4 07 3e 56 e2 28 bd 4b 4c 5e 3c 8a 9c dd 3d
       0.13270582 -0.041231476 0.013567994 0.10820873
000110 d4 f3 8d 3e 57 37 b0 3e 17 cf 76 be 60 51 07 be
       0.2772509 0.3441722 -0.24102436 -0.13214636
000120 d2 0e ad 3d 53 7b 64 3e e3 19 8f 3e ba 2c 91 3e
       0.084500924 0.2231267 0.27949437 0.28354436
000130 84 ab b6 3d 86 f1 66 be cd 67 4f 3d 12 ba 3c be
       0.08919433 -0.22553071 0.0506361 -0.18430355
000140 3c 38 a0 be d4 a2 97 3e a0 c4 81 3e aa 3e aa be
       -0.31292903 0.29616416 0.25345325 -0.33250934
000150 60 8d 7f 3d 0b 01 66 bd 4b ae 60 bd 68 3f 1c be
       0.062390685 -0.05615334 -0.05485372 -0.15258563
000160 08 43 03 3e 46 2c 4a be d3 29 1c 3e 2e b3 5b 3e
       0.12818539 -0.19743451 0.1525033 0.2145507
000170 ce 2a 5f 3e 76 e4 d4 3d 81 b3 c5 be a4 f3 98 be
       0.21793672 0.10395138 -0.38613513 -0.29873383
000180 52 51 03 3e 3f 30 7f 3d 53 cb 69 be 83 06 2f be
       0.1282399 0.06230187 -0.22831468 -0.17092328
000190 f3 13 d4 3e a6 13 46 3e 61 bf 34 be b3 87 14 be
       0.4142147 0.19343433 -0.1765113 -0.1450489
0001a0 7b c1 f7 be 51 d4 ac bd ad 7a 9a be 21 40 3e be
       -0.483898 -0.08438934 -0.3017172 -0.1857915
0001b0 91 69 81 bc 78 67 21 3e 6d 28 03 be f6 2a 53 3e
       -0.015797408 0.15762126 -0.1280839 0.20621857
0001c0 94 c5 d9 bd b4 99 81 3e 9c fc a4 3e 90 1d 87 be
       -0.10633388 0.2531258 0.32223976 -0.26389742
0001d0 2a d4 8e bd 0f 3b ca bc cd 37 9b 39 97 d0 a2 3d
       -0.06974061 -0.024686364 0.0002960548 0.079499416
0001e0 8c 66 06 3e 46 98 55 3d f7 22 c3 bd 7c 3e 3c 3e
       0.13125056 0.052147172 -0.095281534 0.18383211
0001f0 2e 18 9a be 4e 29 55 be 50 e4 aa bd 9e 44 26 be
       -0.30096573 -0.20816538 -0.083443284 -0.16237113
000200 d0 d1 ee bd d2 e1 8b be ab 36 91 bd a6 ec 91 3d
       -0.11661112 -0.27320725 -0.07090505 0.07125215
000210 f3 5d 5e be d6 22 8c bc 00 58 74 3e be 79 13 be
       -0.21715526 -0.017106455 0.23861694 -0.1440191
000220 43 2e 22 3e 88 d1 d1 bd e8 2e cc bb 05 45 1f 3e
       0.1583796 -0.10245043 -0.0062311776 0.15553673
000230 af 5d 2d bd 86 f1 2f 3e 51 8f bc 3e ed 6a 4b 3d
       -0.04232567 0.17181978 0.36828092 0.04966252
000240 a9 b8 81 be 3d 80 57 be 29 49 97 3e ad e2 87 3d
       -0.25336197 -0.21045013 0.29548004 0.06635032
000250 3a 1b 82 bd 53 57 c2 bd 36 71 94 be da 97 a5 be
       -0.06352849 -0.09489312 -0.28992623 -0.32342416
000260 a6 49 1c be 73 30 3b 3e f0 89 38 3e ac 98 a4 be
       -0.1526247 0.182802 0.18021369 -0.3214773
000270 e8 ea 54 3e 5c 8c 85 be a0 52 90 bd be 66 0a be
       0.20792735 -0.26083648 -0.070470095 -0.13515756
000280 f6 7d 83 bd 60 09 86 bd d2 25 99 be 2e 5c 93 be
       -0.064205095 -0.06544757 -0.29911667 -0.28781265
000290 8b a5 55 bd 00 41 8d 3b 26 0f 1b be 7b 94 00 3e
       -0.052159827 0.004310727 -0.15142497 0.12556641
0002a0 27 9c 99 be 00 49 b8 bc 6c 16 96 3e 17 9a 5d be
       -0.30001947 -0.022495747 0.29313982 -0.21640812
0002b0 7c 33 81 3e 44 94 4a 3d a7 7f be be 04 60 15 3e
       0.25234592 0.049457803 -0.37206766 0.14587408
0002c0 77 d5 eb bb b8 a1 4d be 7b 81 6f 3e 5c 4c 5a be
       -0.007197078 -0.20081222 0.23389237 -0.21318191
0002d0 90 f9 85 3d 6b 67 f1 bc d6 74 66 3e d7 f9 a3 3d
       0.06541741 -0.029468259 0.22505507 0.080066375
0002e0 a5 80 f5 3d ed a6 4c 3d 9a 18 de bd 3a be a7 bd
       0.119874276 0.04996388 -0.10844536 -0.0819058
0002f0 0d 32 83 be c5 c4 0e 3e 99 84 61 3e 34 f5 69 3e
       -0.25624123 0.13942249 0.22023238 0.22847444
000300 36 5c 70 be 91 f3 45 3d c9 2e 31 be 40 71 20 be
       -0.23472676 0.048327986 -0.17303003 -0.15668201
000310 a2 46 30 be 2b 46 ca 3d b0 67 4b be 56 4d ee bb
       -0.17214444 0.09876665 -0.19863772 -0.0072724028
000320 80 bf 65 3c 06 08 5c 3e a7 02 81 be 5b 54 6a be
       0.014022708 0.21487436 -0.25197336 -0.22883742
000330 fb 32 46 be 1e e9 6e 3e 10 65 f5 bd 54 a7 a1 3e
       -0.19355385 0.23331115 -0.11982167 0.31572974
000340 b2 66 81 3e 5a 5f 77 3d 92 a4 80 3c 0d fb 89 bd
       0.25273663 0.06039367 0.015703473 -0.06737337
000350 03 d8 fc bd 8f 3e c0 bd 73 00 b7 bc 1a 74 41 3d
       -0.123458885 -0.09386932 -0.022339081 0.047229864
000360 fd 4d b8 be dd a4 e9 be f2 9a 6e 3e 52 03 9d be
       -0.35997 -0.45633593 0.23301294 -0.30666596
000370 ec 54 73 bc c6 50 46 3f 88 f1 01 3e bd 79 10 3e
       -0.01485179 0.77467 0.12689793 0.1410894
000380 4e d5 1f be d8 9e e0 3d 3f 67 e6 be aa 7c 41 bd
       -0.15608713 0.10967797 -0.45000646 -0.04723803
000390 8f 01 84 bd 86 e9 1f 3d 55 eb e5 3e 5c 16 a0 3e
       -0.0644561 0.039041065 0.44906107 0.3126706
0003a0 da cf 2d 3e 1b 30 88 3e 04 2a 2c 3e d4 6d 83 be
       0.1697382 0.26599202 0.16812903 -0.2566973
0003b0 4a 09 19 3e 34 57 71 be 22 91 e9 bd 70 2b 26 3e
       0.1494495 -0.23568422 -0.11404635 0.16227508
0003c0 02 70 03 3e b2 05 88 3e cd c5 e8 bd ab e2 0b 3a
       0.12835696 0.26566845 -0.113658525 0.00053362054
0003d0 f8 b9 2f 3e e7 0c a5 be 03 c7 76 3e cb 20 8d be
       0.17160785 -0.32236406 0.24099354 -0.27564082
0003e0 ab 8a 96 3b 2b 21 68 bd 63 c5 33 be 20 75 34 3d
       0.004594167 -0.056672256 -0.17555766 0.04405701
0003f0 0b f6 60 3e d8 b9 f1 bd 81 e1 87 be 7e 59 43 be
       0.21968858 -0.11803025 -0.26539233 -0.19077107

fc.bias f4 [100]
000000 b4 d0 8e 3e f2 b4 a7 3e d2 57 b7 3e 09 59 65 3e
       0.27893603 0.32755238 0.3580919 0.22397245
000010 90 36 65 3e 3c b7 3c bd 6c 96 93 be cf b3 fb bd
       0.22384095 -0.046073183 -0.288257 -0.12290155
000020 d3 97 44 bd b3 73 38 be 23 4c 19 3e bc cc af 3d
       -0.047996353 -0.18012886 0.1497045 0.08583972
000030 ad cf 7e 3d f6 ce a5 3d 2b ec 95 3e c1 74 43 3d
       0.062209774 0.08096115 0.29281744 0.047718767
000040 66 2c 65 be 6e c4 77 be 4b 71 16 3e fd 84 d3 bc
       -0.22380218 -0.24196026 0.14691655 -0.02582025
000050 07 2c 19 3e 66 3e aa be c7 80 9d be 88 ef 63 3e
       0.14958201 -0.3325073 -0.30762312 0.22259343
000060 85 50 35 3e e6 24 82 be f9 82 01 3e 9b 43 85 be
       0.17706497 -0.25418776 0.12647618 -0.2602814
000070 14 62 3d 3e 5a e9 be 3d c3 c0 a8 3e bc bc ad be
       0.18494445 0.09321852 0.32959566 -0.33933055
000080 f7 4b a4 be 6c 43 6c 3e 54 a3 9a 3e aa 68 56 3e
       -0.32089207 0.23072594 0.30202734 0.20938364
000090 30 d3 67 3e 47 0e 92 be c0 e3 5e 3e 54 9c a6 be
       0.22639155 -0.28526518 0.21766567 -0.32541144
0000a0 c3 25 ef 3d 10 d1 85 be 3e a1 0b be d6 05 93 3d
       0.11677124 -0.26136065 -0.13635728 0.071788475
0000b0 3f 3a 1f be 56 54 aa bd 14 c3 a1 be 01 30 a4 be
       -0.15549563 -0.08316867 -0.31594145 -0.32067874
0000c0 cc f4 94 3d 26 41 37 be df 4d 6a be 20 af 06 be
       0.07273254 -0.17895946 -0.22881268 -0.13152742
0000d0 c3 96 92 be 60 01 8b be c1 b0 34 3e 4d ff 50 3e
       -0.28630647 -0.27149487 0.17645551 0.2040989
0000e0 29 56 41 3d 5d 2d 5c be 56 9d 04 3e e9 54 01 bd
       0.04720131 -0.2150168 0.12950644 -0.031575117
0000f0 10 f1 73 be 54 2d f0 3d 46 66 9b 3e 03 23 ad be
       -0.23822427 0.11727396 0.30351466 -0.33815774
000100 7f e6 b8 be de 68 40 3d 43 e4 63 3e 77 0d 86 be
       -0.36113355 0.04697501 0.22255044 -0.26182148
000110 e7 fd 66 3d c9 31 80 3e de 1f 9f 3d f2 a3 10 3d
       0.056394484 0.25037983 0.0776975 0.0353126
000120 2f 3f 9d 3e 7e 0a 4d 3e a0 f9 3f be 4e 32 6d bc
       0.30712268 0.20023534 -0.18747568 -0.014477326
000130 cc 9b 30 3e 1a 5d 8b 3e 48 cd a9 be 76 d5 38 3e
       0.17246932 0.27219468 -0.3316443 0.18050179
000140 81 ea 95 bd 76 3f a6 be d6 b2 9b 3d 52 13 18 be
       -0.07320119 -0.32470292 0.076024696 -0.1485112
000150 00 7c 41 3d 01 d8 81 be 17 63 89 be 2b b3 e7 bc
       0.047237396 -0.2536011 -0.26833412 -0.028283676
000160 06 4f 4a be 43 a2 47 3e 5a 9a a8 3d f2 ae 99 3e
       -0.19756708 0.19495492 0.08232565 0.30016285
000170 6d 89 77 3d e4 9b 15 be 9d 58 1e 3e ab 37 95 3c
       0.060433794 -0.14610249 0.15463491 0.018215021
000180 0f 5b f7 3c 8e 3c d6 bd 3e 68 80 bb d7 ac aa bd
       0.030194787 -0.10460769 -0.0039186766 -0.08333748

v_head.weight f4 [1, 100]
000000 da 4a 0b bc 23 b8 9f bd 4c 91 84 be 60 0c 16 be
       -0.008501733 -0.07798793 -0.25892103 -0.14653158
000010 38 fd e7 bc a2 ed ac 3c b1 81 f9 3d 99 12 a3 bd
       -0.028318986 0.021109406 0.1218294 -0.079625316
000020 f4 30 84 bc 13 92 e0 bc c5 73 55 3d fd 3a 8d 3d
       -0.016136624 -0.027413404 0.05211236 0.06896017
000030 19 89 33 3d cb ce 74 bd 67 3f e7 bb a7 f5 5b 3d
       0.04383192 -0.059767526 -0.0070571187 0.05370107
000040 7f 0f f4 3d 1a 07 ef bb ba 00 6d bd aa 0f 78 3c
       0.11917018 -0.0072945477 -0.05786202 0.015140453
000050 7e 00 3d 3d aa 1a 0a bd 2d b0 6d bd 05 f0 aa 3d
       0.046143048 -0.033716835 -0.058029342 0.08346561
000060 19 c2 b3 bd 7d d5 34 be 46 61 27 bd 33 1b 26 3d
       -0.087772556 -0.17659564 -0.04086425 0.040553283
000070 bb 29 69 bd 27 b3 9e 3d 0f e7 a1 3d 83 6a 87 3d
       -0.056924563 0.07749014 0.07905399 0.066121124
000080 5a 8e 01 bc 4d 6b fa bd 88 04 16 3d 30 cf 14 3d
       -0.007907474 -0.12227497 0.036625415 0.036330402
000090 07 30 59 bd 98 11 2d bd c1 df 3a bd 3f fa 86 3d
       -0.053024318 -0.042253107 -0.045623545 0.065906994
0000a0 46 e1 80 be 0b b9 61 3d d8 ca 02 bd e2 3e c8 bc
       -0.2517187 0.05510811 -0.031931728 -0.024444047
0000b0 c4 92 e8 3c 26 4e 6a bc a3 d0 8d 3d d6 78 15 3d
       0.028390296 -0.014300859 0.0692456 0.03649219
0000c0 d8 24 25 be aa df 27 3d 9b a3 32 3b 07 08 35 bd
       -0.16127336 0.040984787 0.002725816 -0.04419711
0000d0 5f 3c 57 3c 78 c3 cb 3d b8 35 6b bd 56 f4 89 bd
       0.013136952 0.09949392 -0.057424277 -0.067360565
0000e0 83 c7 e7 3d 64 30 aa 3d 1a 49 ed 3d 43 ab 24 bd
       0.11317351 0.08310011 0.11586209 -0.04020239
0000f0 e7 f3 61 bd b3 28 da 3d 0d bb 2a 3d dc 79 a3 3d
       -0.055164244 0.10652294 0.04168229 0.07982227
000100 ce c0 3b 3c 8f 7e 92 bd 3b 9b 10 bd b3 cb d7 bd
       0.011459542 -0.071530454 -0.03530429 -0.105368994
000110 61 e7 ec 3c 44 83 be 3d 3d 3f 4d 3d 9b 15 46 bc
       0.028918924 0.09302381 0.050109137 -0.012090112
000120 46 0b 3e ba fa 40 0a bd 1d 58 c8 3d ef 47 5a bd
       -0.00072496047 -0.033753373 0.09782431 -0.053291257
000130 e8 0b c1 bd 4b 29 cd bd 2d 4a a7 3d cd 0b 24 3c
       -0.09426099 -0.10017642 0.08168445 0.010012579
000140 6a 4a d2 3d 45 77 c0 bd e7 3a 02 3e 74 75 63 bd
       0.102680996 -0.09397749 0.12717782 -0.055531934
000150 67 2d 24 3d 36 f1 de 3c 43 0b 11 3d 80 5e 0b bc
       0.04008236 0.027214628 0.03541113 -0.008506417
000160 86 bd 57 bc 4f 72 80 bd ef 18 26 be dc 4d c5 3d
       -0.0131677445 -0.06271803 -0.16220449 0.09633991
000170 d1 3d a6 bc 7f b6 11 3d 14 4a 64 bc 6d ca be bc
       -0.020293148 0.035574432 -0.013933677 -0.023289884
000180 68 d9 26 3d 81 70 e8 bd 7b 87 eb bc 52 b4 cb bb
       0.04073468 -0.113495834 -0.028751126 -0.006216564
