Ethical Path Planning For AVs/param/ddpg_anet_params.pkl (torch, 6104 bytes, 3 tensors)

fc.weight f4 [100, 8]
0.34296265 0.28305188 -0.19744065 0.36746255 -0.011028773 -0.16472979 -0.17667334 -0.4001438
-0.030193327 -0.63341576 0.07655617 -0.456822 0.053533815 0.6615725 0.061153803 -0.26174566
-0.23938479 -0.15920965 0.2622322 -0.20762397 -0.08152303 -0.13860318 -0.006217535 -0.28769633
0.24580042 -0.38467783 0.3205681 -0.16550682 -0.16081978 0.06439884 0.14324816 -0.04354629
-0.3594426 0.14039218 0.34424517 0.1724315 0.35051116 0.2024952 0.009743934 -0.28200197
-0.3090074 -0.24342042 -0.08970463 0.2058766 -0.14587045 -0.013731738 -0.004989723 -0.23111038
-0.14660574 0.37330538 0.12117341 0.10791493 -0.16987818 -0.10889352 0.061818704 -0.10990857
-0.1971886 0.361683 -0.033072986 -0.29198223 0.24151143 -0.0042861407 0.15805492 -0.37589726
0.11534966 0.13946281 -0.027693866 -0.17764887 0.27925566 0.23559703 0.13462356 0.049771804
0.02093364 0.15896991 -0.0434038 -0.17423064 0.17988472 0.13033925 0.16676062 -0.07385492
-0.08832264 -0.056608908 0.050678544 -0.31384787 -0.4123171 0.13470377 -0.14823313 0.014480667
-0.070974246 -0.5786887 0.0880332 -0.093380794 -0.0065712505 0.9577304 0.05439489 0.2962881
0.23234436 -0.3395715 -0.14689521 -0.3169658 -0.036230553 0.1975914 -0.52999955 -0.2123533
0.16836962 -0.34316987 0.23236099 0.08412752 0.08531147 0.4110026 -0.2873413 0.2755735
0.04397238 -0.6521965 0.052573454 -0.13171229 -0.005796368 0.31226173 -0.30764058 0.42252988
0.30430415 -0.037716243 -0.3135229 -0.021628793 0.023359427 0.23632252 0.011375265 0.102900304
0.093810156 -0.20060673 -0.21930446 -0.31599545 -0.0027763816 0.1095059 -0.02513933 0.3431823
-0.099587485 -0.22970118 0.06909981 -0.089390114 -0.0152451135 0.20773485 0.03519936 0.3566959
0.02865597 -0.05101579 0.23310293 -0.2275033 -0.021453094 -0.0076370994 0.09666935 -0.32472092
0.0008162139 -0.21110627 0.21551715 0.1052383 0.1419578 0.32925817 -0.04285065 -0.018969899
0.26106444 -0.28496018 -0.26691136 0.003544474 -0.14942683 -0.0020713748 0.33438474 -0.01883579
-0.3174253 -0.28086734 0.31572828 -0.08663158 -0.14811504 0.2778478 0.0845278 -0.3047103
0.2693546 0.28072056 0.27572635 0.123136856 -0.15569244 -0.2066652 0.107968956 -0.061168697
0.06931538 -0.34258905 -0.17476933 0.13132654 -0.017429788 -0.16997103 -0.30839312 0.22470436
-0.39329842 -0.3799901 0.20048305 0.031474166 -0.32439363 -0.2779715 0.20750204 0.15755709
-0.21263494 0.20345114 -0.07364483 0.024219476 -0.18417785 -0.29945788 -0.23480283 -0.03882121
-0.26324597 0.40049982 -0.05627219 -0.19546218 0.08397077 -0.38151613 -0.23570777 0.13173914
-0.30040112 0.17621206 0.029717995 -0.29479536 -0.35087776 0.111740775 0.16711347 -0.07067756
-0.28957558 -0.19050856 0.085552335 0.060823876 0.12859948 0.056248784 -0.00830292 0.22239684
0.04587651 0.19040616 0.07108279 -0.3694139 -0.22991474 -0.04894047 -0.12680669 0.3005787
-0.031514376 -0.2283694 -0.26675603 0.3403724 -0.09505488 -0.047789384 -0.2166788 -0.17527758
0.042576153 0.1138592 -0.17574263 -0.16607259 0.25741094 -0.14754191 -0.2321225 -0.021044377
00000000: cd98 af3e 2dec 903e e22d 4abe 0d24 bc3e
00000010: 07b2 34bc edae 28be dbe9 34be a6df ccbe
00000020: ff57 f7bc 8927 22bf 7bc9 9c3d 93e4 e9be
00000030: 4646 5b3d d15c 293f 697c 7a3d 8703 86be
00000040: 4921 75be db07 23be 4d43 863e 619b 54be
00000050: 8cf5 a6bd feed 0dbe 77bc cbbb ef4c 93be
00000060: 1bb3 7b3e 7ef4 c4be 8121 a43e 9f7a 29be
00000070: f1ad 24be 8ae3 833d a5af 123e 985d 32bd
00000080: dc08 b8be f8c2 0f3e e740 b03e e291 303e
00000090: 3376 b33e e75a 4f3e 05a5 1f3c 9062 90be
000000a0: 3836 9ebe 3443 79be 10b7 b7bd 51d1 523e
000000b0: 105f 15be 15fb 60bc d580 a3bb 33a8 6cbe
000000c0: d11f 16be e221 bf3e c429 f83d 8102 dd3d
000000d0: 8cf4 2dbe 9103 dfbd 9c35 7d3d bf17 e1bd
000000e0: cfeb 49be 842e b93e 8a77 07bd b27e 95be
000000f0: c64e 773e c172 8cbb 26d9 213e 9b75 c0be
00000100: 713c ec3d 57cf 0e3e 3fde e2bc 96e9 35be
00000110: 99fa 8e3e 5940 713e c2da 093e 85dd 4b3d
00000120: 067d ab3c 02c9 223e 2fc8 31bd 8469 32be
00000130: b333 383e a777 053e 4cc3 2a3e 4041 97bd
00000140: 80e2 b4bd bede 67bd 4e94 4f3d abb0 a0be
00000150: 3a1b d3be c9ef 093e 6dca 17be 5240 6d3c
00000160: f25a 91bd f124 14bf c04a b43d 6e3e bfbd
00000170: a553 d7bb d22d 753f 2dcd 5e3d 13b3 973e
00000180: aeeb 6d3e 51dc adbe b36b 16be 5749 a2be
00000190: 7d66 14bd 6655 4a3e 0dae 07bf 2573 59be
000001a0: 1669 2c3e f6b3 afbe 0af0 6d3e 0d4b ac3d
000001b0: c8b7 ae3d ef6e d23e 661e 93be f817 8d3e
000001c0: 621c 343d 5af6 26bf 4357 573d 96df 06be
000001d0: 75ef bdbb c5e0 9f3e 1183 9dbe d655 d83e
000001e0: c1cd 9b3e 597c 1abd 1386 a0be de2e b1bc
000001f0: 455c bf3c 88fe 713e 525f 3a3c 65bd d23d
00000200: 8a1f c03d da6b 4dbe 5991 60be 28ca a1be
00000210: f4f3 35bb a144 e03d fff0 cdbc 97b5 af3e
00000220: 86f4 cbbd c936 6bbe 3484 8d3d 2a12 b7bd
00000230: a4c6 79bc 72b8 543e 342d 103d d8a0 b63e
00000240: edbf ea3c eff5 50bd 89b2 6e3e a0f6 68be
00000250: 66be afbc a240 fabb 95fa c53d d241 a6be
00000260: 30f7 553a 3e2c 58be 87b0 5c3e 2e87 d73d
00000270: 635d 113e 8794 a83e 2a84 2fbd c366 9bbc
00000280: 3daa 853e 4de6 91be 9ba8 88be 684a 683b
00000290: 5903 19be e7bf 07bb 7a34 ab3e 844d 9abc
000002a0: 9285 a2be d8cd 8fbe 23a7 a13e e66b b1bd
000002b0: 78ab 17be 1142 8e3e e91c ad3d fd02 9cbe
000002c0: d9e8 893e 9bba 8f3e 012c 8d3e 2d2f fc3d
000002d0: d76d 1fbe 0ba0 53be d41e dd3d 078c 7abd
000002e0: 39f5 8d3d d567 afbe bbf6 32be 777a 063e
000002f0: eac8 8ebc e30c 2ebe b4e5 9dbe e618 663e
00000300: 695e c9be 108e c2be 6e4b 4d3e 0eeb 003d
00000310: ec16 a6be 4852 8ebe 6a7b 543e a556 213e
00000320: f9bc 59be 7f55 503e 1ad3 96bd ec67 c63c
00000330: 1e99 3cbe 8b52 99be 2770 70be fd02 1fbd
00000340: 2dc8 86be 500e cd3e ab7d 66bd 3d27 48be
00000350: def8 ab3d 1556 c3be 615d 71be a0e6 063e
00000360: 2dce 99be ef70 343e 2773 f33c 6bef 96be
00000370: 40a6 b3be 59d8 e43d cb1f 2b3e 66bf 90bd
00000380: 4043 94be ad14 43be 1036 af3d 7522 793d
00000390: 95af 033e 2065 663d f808 08bc ffbb 633e
000003a0: 02e9 3b3d d5f9 423e db93 913d d223 bdbe
000003b0: c56e 6bbe cd75 48bd 9dd9 01be 74e5 993e
000003c0: 3815 01bd abd9 69be 3f94 88be 4b45 ae3e
000003d0: 22ac c2bd cdbe 43bd 0ce1 5dbe f77b 33be
000003e0: 5564 2e3d 032f e93d e0f5 33be ef0e 2abe
000003f0: 5ecb 833e 3a15 17be 85b1 6dbe 4265 acbc

fc.bias f4 [100]
-0.057875447 0.07278213 0.17113051 -0.3392003 -0.041312087 0.11886928 0.17975079 -0.13779852
0.24036944 0.014079501 -0.17814636 0.07663529 -0.31475684 0.27016717 0.3199618 -0.09652867
0.13966134 0.36274025 0.08048154 0.12455002 0.10750287 -0.15360966 0.05472569 -0.18843463
0.1613267 -0.15150265 0.02071338 -0.10241688 0.22477345 -0.24425945 0.19440246 -0.13167575
-0.37012738 0.23574978 -0.2757292 -0.29027817 0.053044125 -0.18500783 -0.14410605 -0.096127324
0.04549797 -0.1643364 -0.12790883 -0.08886157 0.32144725 0.16180587 -0.18169276 -0.24438676
-0.029036269 0.0023102479 -0.045454457 0.20696673 0.24823202 0.03934231 0.11660128 0.15247242
-0.1268273 0.013559453 0.24990104 -0.24788128 0.02751675 -0.19258246 -0.38585556 0.2196423
0.28250834 -0.19100206 0.09279364 0.035788298 0.122779384 0.19461842 0.18360813 0.24242416
-0.3093629 -0.16653559 0.18777318 -0.17248483 -0.016562965 -0.18589091 0.09941273 0.1429041
0.11112602 0.25683382 -0.06523774 0.14722793 0.11354174 -0.2024811 -0.2533282 0.28527993
-0.13274008 0.26630533 0.21789318 -0.055589203 -0.22500806 -0.024093239 -0.19492897 -0.051058322
-0.14053331 0.25744247 -0.34220216 -0.17222111
00000000: ce0e 6dbd cc0e 953d d63c 2f3e a9ab adbe
00000010: dd36 29bd bd71 f33d 9710 383e 0e1b 0dbe
00000020: 6823 763e b5ad 663c 006c 36be f7f2 9c3d
00000030: cf27 a1be 5a53 8a3e 08d2 a33e d3b0 c5bd
00000040: 6203 0f3e 17b9 b93e 81d3 a43d 1514 ff3d
00000050: 772a dc3d da4b 1dbe 0c28 603d 02f5 40be
00000060: d432 253e 8323 1bbe 1baf a93c f1bf d1bd
00000070: 032b 663e 261f 7abe 7011 473e 02d6 06be
00000080: 5681 bdbe 6468 713e 612c 8dbe 579f 94be
00000090: cc44 593d b172 3dbe 8990 13be 67de c4bd
000000a0: 145c 3a3d cd47 28be 88fa 02be 0efd b5bd
000000b0: bc94 a43e 70b0 253e ab0d 3abe 8640 7abe
000000c0: 78dd edbc 8767 173b 742e 3abd 16ef 533e
000000d0: 8930 7e3e 6725 213d a7cc ee3d bb21 1c3e
000000e0: 04df 01be 7828 5e3c 0fe6 7f3e 97d4 7dbe
000000f0: cf6a e13c 5634 45be dc8e c5be e9e9 603e
00000100: efa4 903e 0b96 43be 980a be3d c096 123d
00000110: c273 fb3d 0d4a 473e c503 3c3e 0a3e 783e
00000120: d064 9ebe 4e88 2abe 9d47 403e dd9f 30be
00000130: 0eaf 87bc 305a 3ebe e798 cb3d 7455 123e
00000140: 0a96 e33d b97f 833e 5d9b 85bd ebc2 163e
00000150: 9288 e83d 3557 4fbe 3cb4 81be 3610 923e
00000160: 04ed 07be 2c59 883e 641f 5f3e 81b1 63bd
00000170: 8368 66be 2f5f c5bc 769b 47be 8822 51bd
00000180: f7e7 0fbe 80cf 833e 1f35 afbe bb5a 30be

mu_head.weight f4 [1, 100]
-0.0645409 -0.053738475 0.031289153 -0.027620684 -0.088861525 0.066208325 0.05133891 0.05993571
-0.06847926 -0.07603814 -0.019923035 -0.26455152 -0.05062436 -0.023413964 0.46638983 -0.017283356
0.09124366 0.086417526 0.062155988 -0.053040214 -0.022812273 -0.054744985 0.050307337 -0.06876786
0.119662136 -0.036746264 0.065205 0.0141056655 0.083095826 0.061750647 0.012157929 -0.07124243
-0.02207551 0.16674434 0.024303136 -0.0005318046 -0.13852654 0.092237994 -0.27931717 0.1522422
0.07308116 0.023240974 -0.03571188 -0.09389549 -0.19514686 0.08296625 -0.041512802 -0.09548128
0.053564467 0.05315677 -0.08097687 -0.09284216 0.10525918 -0.10427512 0.069667995 0.15391515
-0.0813879 -0.08890621 0.06734996 -0.13135259 -0.043745723 -0.025538618 -0.08541697 0.07749568
0.02535901 -0.04329736 0.01586962 0.08508774 -0.04652854 -0.011060405 0.34513813 -0.19687752
0.054472458 -0.05676311 0.024560643 0.1479197 0.2880073 -0.32182422 -0.04983514 0.051073354
-0.06402171 0.02474512 -0.15433736 0.35278827 -0.05715256 -0.07390705 -0.099753894 -0.02676708
0.03585513 -0.09644449 0.054762404 0.025718644 0.257014 0.109682344 -0.03276815 -0.18000507
0.005087471 -0.061620664 -0.03994031 -0.0008163119
00000000: 052e 84bd e01c 5cbd 0e29 003d c644 e2bc
00000010: 08fd b5bd 3b98 873d c048 523d 267f 753d
00000020: db3e 8cbd e2b9 9bbd a235 a3bc 4c73 87be
00000030: 7d5b 4fbd a4ce bfbc a6ca ee3e d395 8dbc
00000040: f5dd ba3d acfb b03d 4797 7e3d b240 59bd
00000050: cee0 babc 473c 60bd 110f 4e3d 2ad6 8cbd
00000060: 6c11 f53d 4083 16bd 338a 853d 731b 673c
00000070: 252e aa3d 3fee 7c3d 0d32 473c 8de7 91bd
00000080: b3d7 b4bc 07bf 2a3e 5f17 c73c cd68 0bba
00000090: e7d9 0dbe 46e7 bc3d a902 8fbe 61e5 1b3e
000000a0: 93ab 953d db63 be3c 9f46 12bd 474c c0bd
000000b0: 94d4 47be 36ea a93d 5409 2abd b08b c3bd
000000c0: 6a66 5b3d eaba 593d 34d7 a5bd 0824 bebd
000000d0: 2092 d73d 328e d5bd 18ae 8e3d ef9b 1d3e
000000e0: b3ae a6bd 7614 b6bd c7ee 893d 4b81 06be
000000f0: b72e 33bd 5d36 d1bc 18ef aebd 0eb6 9e3d
00000100: b3bd cf3c 9358 31bd 0101 823c 7b42 ae3d
00000110: b694 3ebd b336 35bc f2b5 b03e 439a 49be
00000120: 831e 5f3d 6f80 68bd 6733 c93c 4378 173e
00000130: b175 933e 25c6 a4be ef1f 4cbd 4b32 513d
00000140: d01d 83bd 47b6 ca3c 9d0a 1ebe aaa0 b43e
00000150: ce18 6abd 945c 97bd c54b ccbd a346 dbbc
00000160: d4dc 123d b084 c5bd 8b4e 603d e8af d23c
00000170: 5797 833e 23a1 e03d e537 06bd 4053 38be
00000180: cdb4 a63b f365 7cbd 7398 23bd c4fd 55ba
